model_parameters.pth (torch, 9364 bytes, 9 tensors)

light._t_vec f8 [1, 1, 3]
000000 85 eb 51 b8 1e 85 d3 3f 7b 14 ae 47 e1 7a b4 bf
       0.305 -0.08
000010 39 b4 c8 76 be 9f aa 3f
       0.052

light.mlp.0.weight f4 [20, 5]
000000 de 71 86 3c 5e 6a 9d be a0 c2 3b 3e d0 81 fa be
       0.016411718 -0.30745214 0.18335962 -0.48927164
000010 ed 00 b0 bf e0 6c 32 3f f2 c1 b9 3e 34 d6 84 be
       -1.3750283 0.6969738 0.3628078 -0.25944674
000020 04 f7 83 be 03 15 71 bf 43 35 29 3f bf 5b 55 3e
       -0.25774395 -0.94172686 0.66096896 0.2083578
000030 35 bb 4a be 80 00 f8 be c5 3c 89 bf a1 e0 2c bf
       -0.19797976 -0.4843788 -1.072167 -0.67530257
000040 b0 09 66 3f 1f 79 8a 3f 49 63 3c 3f 00 78 8e 3f
       0.8985853 1.0818213 0.73589 1.1130371
000050 ee ba 0e be 05 95 50 3e 9b ec 81 3e 2f 56 b4 3e
       -0.13938496 0.20369346 0.25375828 0.35222003
000060 fb b7 13 3f 8b eb a9 3e 1d d6 ff 3e 6c 83 da bd
       0.57702607 0.33187518 0.49968043 -0.10669598
000070 57 35 42 bf 18 e3 76 bf 89 06 9a bd 8d 99 6b be
       -0.7586264 -0.9644027 -0.07520778 -0.23007794
000080 0f 16 17 bf 28 4c 25 bf e7 6b a4 bd 8d 34 08 3f
       -0.59018034 -0.6456933 -0.08028393 0.53205186
000090 84 7b 94 be 4c 5b b3 be 22 b0 81 bf f8 80 85 bf
       -0.29000485 -0.3503059 -1.0131876 -1.0429983
0000a0 00 68 6f bd 42 f6 cf be 28 71 98 3c b4 43 26 bf
       -0.05844879 -0.40617567 0.018608645 -0.64947057
0000b0 43 3a aa bf c7 08 58 3f 68 5d 83 bd 87 68 ed be
       -1.329903 0.84388393 -0.064143 -0.4636881
0000c0 92 87 2e bf d4 97 78 bf b0 06 4c be 03 40 2a 3e
       -0.68175614 -0.9710667 -0.19924426 0.16625981
0000d0 14 9b 90 3e 16 86 4c bd 91 e1 48 3f b7 29 df 3e
       0.28243315 -0.04993256 0.7846919 0.43586513
0000e0 14 f3 3c 3e 38 0b a7 be 99 3a 13 bf 47 85 b1 bf
       0.18452102 -0.32625747 -0.5751129 -1.3868798
0000f0 b4 b3 50 be 69 95 83 be dd 77 17 3f bd 35 34 3f
       -0.20381051 -0.25699928 0.5916727 0.703945
000100 65 8d 38 3f 83 b5 2e bf 07 ac 22 bf 46 81 83 bf
       0.7209075 -0.68245715 -0.6354374 -1.0273826
000110 f4 9e 51 bf d2 fd a2 3e 5e ed e8 be 30 b2 a2 be
       -0.8188317 0.31834275 -0.45493597 -0.3177657
000120 ed c3 f7 bc fc 24 b8 3e 26 bb 2f 3f f9 13 55 be
       -0.030244792 0.35965717 0.6864494 -0.208084
000130 a2 cb d6 3e e9 63 c4 bd fc d1 06 3f a3 1f 57 3f
       0.41952235 -0.09589369 0.5266416 0.8403265
000140 fa b3 94 3e 0f 2a ac be 9c b5 9b 3e ff bc 3e 3e
       0.2904356 -0.33625838 0.30411994 0.18626784
000150 43 24 eb 3e 9e 55 14 be bf 6e b7 3d 5a 09 15 3e
       0.45926103 -0.14485785 0.0895667 0.14554349
000160 e3 2b 07 bf 8a 46 ae bf b0 96 85 3e c8 df a5 3d
       -0.5280134 -1.3615277 0.26091528 0.080993235
000170 19 9a 6b be d3 8e 09 3f 28 30 18 3b b0 28 2d 3e
       -0.23008002 0.5373356 0.0023222063 0.16910052
000180 b8 c0 40 bd f8 90 25 3c b6 eb 2f bb 12 32 b9 bf
       -0.04705879 0.010105364 -0.0026843376 -1.4468405

light.mlp.0.bias f4 [20]
000000 60 f9 85 3d bb 87 25 3d 34 39 d4 3c 12 72 f0 3e
       0.06541705 0.040412646 0.025906183 0.4696203
000010 4d 5c c4 3d d9 5a 07 3d 6f 0e 08 bf 22 62 56 be
       0.095879175 0.033045623 -0.53147024 -0.20935872
000020 96 ee c4 3d a9 10 bd 3d 7c 65 b2 3d 63 63 59 bd
       0.09615819 0.09231693 0.08710763 -0.0530733
000030 6f 68 1f 3e 44 30 ff be ee 9f 06 3e 56 9d 10 3e
       0.15567182 -0.4984151 0.13146946 0.14122519
000040 e6 cb 73 3d 2a f6 85 bd 52 c1 4d bc 71 83 50 3d
       0.059520625 -0.06541093 -0.012558298 0.050906602

light.mlp.2.weight f4 [20, 20]
000000 62 93 06 be 2f bc 02 bf e3 e3 b0 3d 91 81 a9 3e
       -0.1314216 -0.51068395 0.08637216 0.33106664
000010 6e 8e 20 3d 34 93 e2 3d 03 9d 49 3e 06 9f 0e 3e
       0.03919833 0.11063233 0.19688801 0.1392785
000020 45 69 8e bd cf 6c da be 00 34 43 3e 14 75 d3 bc
       -0.06953672 -0.4266114 0.19062805 -0.025812663
000030 a2 07 04 be 9c 30 a9 3e 58 43 a5 3c c0 89 2a be
       -0.12893537 0.330449 0.020173714 -0.1665411
000040 c9 4b f9 3d ac 41 6f 3e 8e a8 c6 39 dd 7e 8d be
       0.12172658 0.23364896 0.00037891086 -0.27635852
000050 69 6e 4f 3b f1 c1 b4 3d db 90 99 3e 97 b2 ee be
       0.0031651503 0.08826054 0.29993328 -0.46620628
000060 df 8b e9 be 02 e8 d0 3e ec ea f0 bd ce 6c 14 3e
       -0.45614526 0.40802008 -0.11763558 0.1449463
000070 8e 21 17 3e 29 61 75 3e 6b 3d e3 be 9c db f8 3e
       0.14758894 0.23962845 -0.44382796 0.4860505
000080 24 a4 5a be 0c 1f 4f 3e bb 21 37 bb 64 b1 b1 be
       -0.21351677 0.20226687 -0.002794369 -0.3470565
000090 1b 9e 34 3e a0 0c 97 3e eb 62 93 be e1 bf b7 bd
       0.17638437 0.2950182 -0.28786406 -0.08972145
0000a0 b2 42 be 3e 3f 31 2b 3e 5d 17 44 be ad 92 4c 3e
       0.3716026 0.16718005 -0.19149537 0.19977827
0000b0 a0 12 d6 be 1f 0b 31 be cd 00 19 bd 8b a9 e3 3b
       -0.41811085 -0.17289399 -0.03735428 0.0069477013
0000c0 34 71 95 3e 11 8e 52 bb 75 91 6d be f2 7d ef 3e
       0.2918793 -0.0032128135 -0.23200019 0.46775776
0000d0 3b 4a cf be 6d 5c 11 3e 7d 69 54 bc ad 12 c3 be
       -0.4048632 0.14195414 -0.0129646035 -0.38100186
0000e0 ba bb 5b be 7f 61 50 bd d0 48 b7 be 03 4c e1 3b
       -0.21458331 -0.05087423 -0.3579774 0.0068755164
0000f0 58 51 97 be 08 aa 67 be 71 05 a1 be 12 0b 1a be
       -0.29554248 -0.22623456 -0.31449464 -0.15043285
000100 40 70 80 3d 34 d2 25 be bf eb 57 be d8 f8 0f be
       0.0627141 -0.16193467 -0.21086024 -0.1405977
000110 4a 2d 80 3e 1d d6 ba 3d b7 c4 ae 3d aa 2a b4 bd
       0.25034553 0.0912287 0.08533614 -0.087972
000120 16 99 a8 3e 18 dc a7 be 1d 06 98 3e be bc 3b 3e
       0.32929295 -0.32785106 0.29692164 0.18333718
000130 3b f0 37 3e d5 03 bc be 58 ac 37 3e c6 a2 e5 3d
       0.17962734 -0.36721674 0.17936838 0.11212687
000140 ba 0a a4 3e a9 4d 6b be 43 23 5f be 32 39 0f 3e
       0.32039434 -0.22978844 -0.21790795 0.13986662
000150 e0 09 ce 3e 98 5b 8e be 9a 3a 71 bd 10 cb 97 be
       0.4024191 -0.27804255 -0.058893777 -0.29647112
000160 75 94 a5 be 5b bd 97 3c 00 c5 f1 3e e7 7f 32 3e
       -0.32339826 0.018522909 0.47220612 0.17431603
000170 20 d8 e9 3e bb 1c 0d be 1c 97 ea 3e 73 2d fa bd
       0.45672703 -0.13780491 0.45818412 -0.122157
000180 e9 44 aa 3e 44 1c 18 3d 60 1f 80 be 67 da 66 3d
       0.332557 0.03713633 -0.25023937 0.05636063
000190 c0 db e5 be 40 4e bc be e8 b6 b4 3e f2 c2 03 be
       -0.44894218 -0.3677845 0.35295796 -0.12867334
0001a0 52 c6 ea 3d 3f cf f9 bd db 7b b5 be 54 c7 32 3e
       0.11463608 -0.12197732 -0.35446057 0.1745885
0001b0 10 58 dc be 78 4d 1a be 14 b7 09 bd ad 2f 98 3e
       -0.43035936 -0.15068614 -0.033621863 0.29723874
0001c0 f2 ad 2c 3e db dd 9a 3e 53 1b 73 3e bc 4d 4d be
       0.1686323 0.30247387 0.23740892 -0.20049185
0001d0 36 a0 32 be 1b 7c 97 3b 02 21 3a 3e 43 23 68 be
       -0.17443928 0.004622949 0.18176654 -0.22669701
0001e0 06 04 87 3e e6 0f e2 3e 6c c8 b3 3e 8c 5f 02 bf
       0.26370257 0.44152755 0.35113847 -0.5092704
0001f0 db 32 6a be 0e 03 b4 3e 7b 06 86 bd 5a 0a 8a 3e
       -0.22870962 0.3515858 -0.06544205 0.26961023
000200 99 d7 aa 3d fb 64 e6 3e 56 53 b9 be 84 82 0d be
       0.08341903 0.44998917 -0.36196393 -0.13819319
000210 f6 b3 c8 be 70 bf 66 3e aa 31 52 be 9b a6 97 be
       -0.391998 0.22533965 -0.20526758 -0.29619297
000220 fd d1 b5 be 49 c0 81 3e b4 64 a6 3d 18 35 e3 3e
       -0.3551177 0.25342014 0.08124676 0.44376445
000230 c9 3b b7 3d 4e e8 71 3d 63 a4 6c 3e 1c 3e 91 3d
       0.0894695 0.059059434 0.23109584 0.070919245
000240 57 b5 01 bf cb a5 a7 3e e1 ef 1c 3e 3b af 84 3e
       -0.5066733 0.32743677 0.15325882 0.2591494
000250 aa 84 74 3e 24 a6 cb 3e de a6 07 be b0 95 93 3e
       0.23878732 0.39775193 -0.13247249 0.2882514
000260 66 02 87 be b6 7a e4 bd a5 17 05 bf b7 2f 3a 3e
       -0.26369017 -0.11156218 -0.51989204 0.18182264
000270 04 34 d5 be 24 4e e1 3e 2b 7c 3d be 46 56 5b be
       -0.41641247 0.4400493 -0.18504398 -0.2141963
000280 17 c7 be 3e d6 9b 93 3e 9d b8 9a 3e 8a f4 ed 3c
       0.37261268 0.2882983 0.30218974 0.02904727
000290 51 8a b7 bc 52 00 3f 3e 74 3c 97 3e 32 4f 82 3e
       -0.022404822 0.18652466 0.2953831 0.25451046
0002a0 8e 5d 29 3e ce a7 66 be 65 37 7b be e7 01 25 be
       0.16539595 -0.2252495 -0.2453285 -0.16114007
0002b0 1f df 25 be 7b dc 72 be 21 da 3f 3e c6 8e 25 be
       -0.16198395 -0.23716919 0.18735553 -0.16167745
0002c0 98 b5 84 3d b9 06 1c be b3 52 b3 be 9c 6e 8f be
       0.06479949 -0.1523694 -0.35024032 -0.28014076
0002d0 e2 60 7c 3e 97 e0 3d 3e 6c da c8 3d ac af e9 be
       0.24646333 0.18542705 0.09807286 -0.4564184
0002e0 4b e4 e2 bd 41 54 e5 3e 93 b2 b9 3e 6b 2b 7d 3e
       -0.110787 0.44790843 0.36269054 0.24723594
0002f0 6f 04 24 3f 32 e6 91 3e 24 79 25 bf cf 8f 0a 3f
       0.64069265 0.28495938 -0.6463797 0.54125684
000300 83 87 52 bf 17 db c8 be df e4 f6 be f0 22 f4 be
       -0.82238024 -0.39229652 -0.4822149 -0.47682905
000310 41 57 94 3d 2f 5b dd 3e 64 a3 32 be 98 14 06 3f
       0.07243205 0.4323363 -0.17445141 0.52375174
000320 8f cb 38 3e 4e 4d 4c be 04 59 6b 3e 59 60 d1 3d
       0.18046401 -0.19951364 0.22983176 0.10223455
000330 19 62 d2 3e 85 1d 2c 3d 4b e9 9a 3e 11 96 a9 3e
       0.41090468 0.04202034 0.30256113 0.33122304
000340 eb 30 87 bc 1b 15 47 be 3d 17 fa bd 0e 0b ae be
       -0.016502818 -0.19441645 -0.122114636 -0.3399281
000350 d2 55 d9 3e b8 3b 0f be 12 34 a2 3e f4 63 fc bd
       0.42448288 -0.13987625 0.31680351 -0.12323752
000360 8c d9 a3 3e 32 de 95 3b 9b 62 ac 3d 59 5e 7b bd
       0.32001913 0.004573607 0.08417245 -0.061369274
000370 f0 d7 cd 3e b7 51 8c 3e 46 57 4f 3e c3 fd 45 bf
       0.4020381 0.27406093 0.20248136 -0.77340335
000380 e8 7e 6b be 62 03 42 3f 6d 44 bd 3e b8 d4 1d 3e
       -0.2299763 0.7578641 0.36966267 0.15413177
000390 e2 f0 8a 3e 35 e1 3d 3f 0f ff 1c be 43 49 49 3e
       0.27136904 0.74171764 -0.15331672 0.19656853
0003a0 65 07 7e be cd e4 6e be 66 d2 50 bf fa d5 35 bf
       -0.24807508 -0.23329468 -0.8157104 -0.7102963
0003b0 03 05 a1 bc 25 c4 6a 3e 14 39 ab 3d d0 71 ac 3e
       -0.01965571 0.22926386 0.08360496 0.33680582
0003c0 08 16 8c bc e7 07 e0 bc e8 48 e3 be 91 b9 9f be
       -0.017100349 -0.027347518 -0.4439156 -0.31196263
0003d0 4e 7f 22 3e 52 13 a0 be 79 1c 1b 3d 0d 00 da 3d
       0.15868875 -0.3126474 0.03786895 0.10644541
0003e0 eb bd c7 be 20 0e e8 3d c8 f9 60 3d 56 4f 39 3e
       -0.39012083 0.11330819 0.05492571 0.1809667
0003f0 1a 0f 40 3e 8a f5 a9 be 5d 82 0b bd 83 63 d2 bd
       0.18755761 -0.33195144 -0.03405987 -0.102728866

light.mlp.2.bias f4 [20]
000000 44 e2 45 bd bb 86 ed bc 2a ec 64 bd 00 e6 b5 ba
       -0.048311487 -0.028994909 -0.055889286 -0.001387775
000010 c7 2a d3 3d a5 d1 91 3d cd 04 fa bc e9 fe 64 bd
       0.103108935 0.07120065 -0.030519867 -0.055907164
000020 36 f8 af bc 10 37 2a be 3e e7 38 3d ed 51 8e bd
       -0.02148066 -0.16622567 0.045142405 -0.0694922
000030 de 50 7a bd 32 e1 ba bd 40 99 33 3d 69 11 bf 3c
       -0.061112277 -0.09124984 0.043847322 0.023323731
000040 87 d1 e5 3d 04 da 14 3d f1 26 70 bd 5b bb d0 3d
       0.11221605 0.03634073 -0.058630887 0.10191985

light.mlp.4.weight f4 [20, 20]
000000 89 96 7b 3e ad b2 a6 3e 96 19 1d be 54 0b bf bc
       0.24569143 0.32558194 -0.15341792 -0.023320831
000010 25 db 81 bd a5 04 d1 bd fc 4e 22 bd e4 ed 44 be
       -0.063406266 -0.10205964 -0.039626107 -0.19231373
000020 ce 39 aa be 60 75 69 3e 78 67 2b 3d c1 08 4f 3e
       -0.33247226 0.22798681 0.041846722 0.20218183
000030 7b 56 4b 3e a6 3a 84 3e b7 4c 44 3e fe 92 ce 3d
       0.19857208 0.25825995 0.1916989 0.1008663
000040 b2 82 9f be 91 dc c1 3d 24 fa ef be 84 00 bf be
       -0.311544 0.09465898 -0.4687053 -0.3730508
000050 b4 91 0d 3d 95 ec 8b bc 0d 3c ca be 11 26 6a be
       0.03456278 -0.017080585 -0.3949894 -0.22866084
000060 73 8a 11 3e f4 ab d6 bd 90 80 1d 3e 53 fe cb be
       0.1421297 -0.10482016 0.15381074 -0.3984247
000070 4c 8f 9d 3e 7f a6 71 3e 04 59 19 3e ee c5 d0 be
       0.3077339 0.2359867 0.14975363 -0.40776008
000080 56 f4 e2 3d f2 3d 96 3d 2d 03 37 3e 82 0c 94 3e
       0.1108176 0.07336034 0.17872305 0.28915793
000090 0a 8c 64 be 25 5b 5f be d3 0c c2 3d 31 44 16 3c
       -0.22319046 -0.21812113 0.09475102 0.009171532
0000a0 af bc 36 3e ed af a7 3d 40 02 72 3e aa 2f 9a be
       0.17845415 0.08187852 0.23633671 -0.3011449
0000b0 9a 42 81 be 9c 53 dd bc b3 0e a7 bd f6 2d d4 3d
       -0.25246125 -0.027017407 -0.081571005 0.10360329
0000c0 77 2d c4 be b6 1d 1f 3e ae 77 dc be 31 1f c3 be
       -0.38315937 0.15538678 -0.43060058 -0.38109735
0000d0 51 9b 86 3d 9a e8 54 3e 30 bb af be 08 4c be 3d
       0.06572593 0.20791855 -0.343225 0.092918456
0000e0 75 16 76 3e 05 08 d3 3c a0 fd 74 be 98 84 7f 3e
       0.24032004 0.02576066 -0.23924875 0.24952924
0000f0 04 d9 c1 be 6f 94 9b be 9e 4c 4b 3e c4 51 57 be
       -0.37860882 -0.30386683 0.19853446 -0.21027285
000100 06 61 79 3c fd 64 22 3e d0 59 8a 3e 49 3c 02 3e
       0.015220886 0.15858836 0.27021646 0.1271831
000110 58 16 b5 be 74 59 aa be b9 3f 8d be 21 91 c1 bd
       -0.3536861 -0.33271372 -0.2758768 -0.09451509
000120 8e 96 de bd 2a 15 96 3e e0 95 2d be c9 1d 90 bd
       -0.1086856 0.29313022 -0.16951704 -0.07036931
000130 0d 9b 8b 3e 1c ce fc bd ce db a4 be e3 69 86 be
       0.27266732 -0.12344 -0.32198948 -0.2625266
000140 99 9f cc be 51 72 9c 3e 71 32 65 be 34 8a bb be
       -0.39965513 0.30555966 -0.22382523 -0.36628878
000150 d4 75 9c bd 55 83 01 bf 63 3c f6 3e be 57 e3 3e
       -0.076396614 -0.5059102 0.48092946 0.4440288
000160 a5 46 78 be 0c 17 d7 3e 3c 18 82 be 57 31 03 3f
       -0.24245699 0.4200977 -0.25409114 0.5124716
000170 e9 1f 70 be 21 ad 78 3e 69 53 b8 be d9 17 19 be
       -0.23449673 0.24284793 -0.36001137 -0.14950503
000180 f0 de ae be 0a 3e 15 be 5d bb a1 3e fd 83 f0 be
       -0.34154463 -0.14574447 0.3158826 -0.469757
000190 51 68 94 bd ef e7 82 3e b9 47 6e 3e ee 7a 35 bc
       -0.07246459 0.25567576 0.23269548 -0.011076672
0001a0 3f d0 05 bf 4f a6 23 be 94 d9 bf 3e 5c c5 d7 bd
       -0.52270883 -0.1598141 0.37470686 -0.1053569
0001b0 de 6c e4 be 8c 53 04 be 2b 21 ba bc 9b c9 19 3e
       -0.4461431 -0.12922496 -0.022720894 0.15018313
0001c0 94 1c 4f 3e 87 cd 84 3e 71 a0 c1 bd 3a 19 98 be
       0.20225745 0.25938055 -0.0945443 -0.29706746
0001d0 e0 35 0a bf 83 ec 03 be ae 51 22 3e b4 3b 0b be
       -0.53988457 -0.12883191 0.15851471 -0.13596994
0001e0 b1 10 74 bd 4e 95 07 3e 4e 19 7c 3e 46 a5 73 3d
       -0.05958623 0.13240549 0.24619028 0.05948379
0001f0 06 ae 02 be e4 5a c5 be 61 f1 88 3e 7e ca 6f 3c
       -0.12761697 -0.38545907 0.26746657 0.01463568
000200 94 10 fd bd 80 ff b0 3c b1 ce f7 be da 33 8c 3d
       -0.12356678 0.021606207 -0.4839988 0.068458274
000210 84 7a b6 be fd 43 12 3e 90 c6 cb bd 30 31 f5 3d
       -0.35640347 0.14283748 -0.09949982 0.119722724
000220 49 ea 02 be aa 22 d0 be 38 92 b0 3e 25 5f 86 be
       -0.12784685 -0.40651447 0.34486556 -0.26244465
000230 d4 9c 4b 3e c7 71 b6 be 5d 53 6d be 3d 3d 23 3e
       0.19884044 -0.3563368 -0.23176332 0.1594133
000240 4d a3 cf 3e ae 47 68 3d 3c 5b 28 bd c2 71 90 3e
       0.40554276 0.056708984 -0.041102633 0.2821179
000250 46 e0 c8 bd 8c 06 27 be 28 aa ac 3e 2a 4a 1d 3e
       -0.09808402 -0.16311091 0.3372357 0.15360323
000260 a7 e7 7b 3e 52 52 a1 be 9b 5f 1b 3e 8e 4a 35 be
       0.24600087 -0.31508118 0.1517319 -0.17704222
000270 67 47 2b 3d 02 89 01 3e c0 6a 70 3d c9 0e 0c 3e
       0.04181614 0.1264992 0.058695555 0.13677515
000280 e8 f7 e5 be 78 fe 68 be dc 3a 21 3e c9 32 90 3d
       -0.449157 -0.22753322 0.1574511 0.070409365
000290 cc 9c 5b be 9b c2 72 3e a2 58 5a 3e 2c 41 ed be
       -0.21446532 0.23707049 0.21322873 -0.46338785
0002a0 29 9b 96 be ab ad 6c be a2 17 7c be 83 14 b3 bc
       -0.29415253 -0.23113124 -0.2461839 -0.021860367
0002b0 7e b6 ce be 70 38 6e 3e 4f 71 63 be 56 4f 7c 3c
       -0.40373605 0.23263717 -0.22211193 0.015399775
0002c0 ac 22 27 be f6 1c 9e 3d de a8 37 3e 92 3d 40 3e
       -0.1632182 0.077203676 0.17935511 0.18773487
0002d0 be 40 5a ba 4c b2 60 be 9b 24 e1 be 86 61 21 be
       -0.00083256874 -0.21943015 -0.4397324 -0.15759858
0002e0 6c 6a eb be 70 b8 61 be 68 60 e5 be 9b 7c 97 3e
       -0.4597963 -0.22043014 -0.44800115 0.29587254
0002f0 59 87 d1 bd ae 32 14 bf 5b a6 01 3e bd e6 14 bf
       -0.10230894 -0.5788983 0.12661116 -0.5816458
000300 65 e9 84 bc a6 8a d4 be 4b a9 d5 be ed 1d d6 be
       -0.016224572 -0.4151203 -0.41730723 -0.41819707
000310 09 24 8c be a4 2f d1 be a2 25 8d be 5f df 20 be
       -0.27371243 -0.4085666 -0.27567774 -0.1571021
000320 cb 9c 3b bf 7f bf 7e bf bf 31 08 bf d0 26 ee be
       -0.7328612 -0.9951095 -0.53200907 -0.46513987
000330 30 21 81 bf 80 f1 87 bf cb d4 77 bf 5c cb a4 be
       -1.0088253 -1.0620575 -0.9680907 -0.321864
000340 33 e2 08 bf 66 7c 46 bf f9 31 ff be d5 38 54 bf
       -0.5347015 -0.77533567 -0.49842814 -0.8289922
000350 d4 f9 d7 be c3 56 3f bf ab fc 7b bf d9 48 7d bf
       -0.4218279 -0.7474176 -0.98432416 -0.9893928
000360 18 0f bb be 2d 69 88 bf 59 10 01 bf 97 d7 7b bf
       -0.36534953 -1.0657097 -0.5041557 -0.9837584
000370 40 30 2e 3e 99 b5 96 3e 07 6d ba 3e c1 92 39 3d
       0.17010593 0.29435423 0.36411306 0.04530597
000380 5e e8 b8 be 42 da 87 bd 52 ba 81 3b 8d c6 89 be
       -0.36114782 -0.06633426 0.0039589787 -0.26909295
000390 97 2f b0 be c2 73 a0 be 61 94 37 be 10 31 8c be
       -0.34411308 -0.31338316 -0.17927696 -0.27381182
0003a0 5c b4 03 be e8 61 00 3e 89 d0 a7 be 47 24 c2 bd
       -0.1286177 0.12537348 -0.32776287 -0.094795756
0003b0 05 a1 21 bd 19 f2 4d bd 5e b0 3f bb cf 28 8f 3e
       -0.0394602 -0.05027971 -0.002924941 0.27960822
0003c0 bb cf 82 3e 3c 0f c4 be ca 38 e5 bd a4 e0 de be
       0.2554911 -0.38292873 -0.11192472 -0.43530762
0003d0 2e bd b4 be c9 98 11 3e 92 cd a8 bc 9e d2 85 be
       -0.35300583 0.14218439 -0.020605836 -0.2613725
0003e0 e7 3b 95 be ef 81 ce 3d 6e 85 d3 be 2e 24 8b be
       -0.29147264 0.100833766 -0.41312736 -0.2717604
0003f0 9d 68 b2 be 49 54 54 be 03 75 5e 3c 09 11 7c 3e
       -0.3484544 -0.20735277 0.013577702 0.24615873

light.mlp.4.bias f4 [20]
000000 fd 7a a6 ba 11 fb b6 ba 1d 8c 8e bd ac b1 92 bd
       -0.0012701448 -0.0013960322 -0.06960318 -0.071627945
000010 74 a5 0d bd 3e cd 43 be 4c 31 bb bd 2b 56 f6 3c
       -0.034581617 -0.19121262 -0.09140262 0.030070385
000020 09 2a 1d bd 62 31 ef bd 4d 50 46 bf e3 26 b4 bb
       -0.038370166 -0.11679341 -0.7746628 -0.0054977997
000030 02 d1 db bd d7 ce 96 bc 1e 1d d8 bd 34 78 d9 bd
       -0.107332245 -0.018409176 -0.10552429 -0.1061863
000040 49 a3 c0 bd 71 de 89 bd bc c8 42 ba 7c bd d9 bc
       -0.09406144 -0.067318805 -0.00074304244 -0.026579611

light.mlp.6.weight f4 [1, 20]
000000 00 7a f6 3e a0 ca 6a 3e 83 fb 44 3d 2d f1 5b 3d
       0.48139954 0.22928858 0.048091423 0.0536968
000010 47 0a 0e bf 21 01 99 bc ff b6 eb bd f9 a1 c4 3e
       -0.5548443 -0.018677296 -0.11509513 0.38404825
000020 ca 8d ec 3d 97 5b bc bd e6 a0 c1 3b 92 ac 9b 3e
       0.115504816 -0.09197157 0.005909073 0.30405098
000030 d9 c9 cb 3c 62 3e e3 3e cd 6f fb be 72 95 9a be
       0.024876522 0.44383532 -0.49108735 -0.30192143
000040 f3 0d 26 be 69 aa 0a bf 56 8b 89 3e 0d dc ed 3d
       -0.16216259 -0.54166275 0.26864117 0.11614237

so3 f8 [1, 1, 3]
000000 1c 2f dd 24 06 81 95 bf 9b 99 99 99 99 99 c9 bf
       -0.021000000000000005 -0.20000000000000004
000010 d7 a3 70 3d 0a d7 d3 3f
       0.31
